best_model.pth (torch, 76066 bytes, 12 tensors)

network.0.weight f4 [128, 2]
00000000: 4029 ed3d 00fc 8bbc d49d 15be be7d e03e
00000010: 7dcf 273f 15b2 183f 7094 d43d 20c9 d4bd
00000020: 9b3f 1bbf c235 21bf 10d5 0e3e 8529 23bf
00000030: 4b0f a8be aee5 1ebf 1b5b b9be 0a44 ff3e
00000040: 752a 113f d659 d63e 68ca 0cbe 1ec4 ebbe
00000050: 0cd9 ffbe 1b88 83be 8015 733e bccb 13bf
00000060: 3c7f 08be 0252 d03e 62be bf3e 542c 7c3e
00000070: 7e1b 9c3e 50a4 dcbd d55d 293f a2d2 edbe
00000080: 2810 5abe 4009 63bc 0a91 00bf 7c6e 633e
00000090: 912f 253f 3416 adbe 6113 1dbf 1a94 babe
000000a0: 37b1 b8be 27be 1f3f 7c91 0c3e 4c48 903e
000000b0: 5616 9e3e abed 1a3f e44a 48be 76cd e1be
000000c0: 40c6 f7bc bad1 a93e 8c37 bebe a8e8 9abe
000000d0: 84d6 3ebe c0da 4f3d 2a76 be3e e6fe d7be
000000e0: 0e42 b53e 462b 19bf fcd6 52be 267d 16bf
000000f0: 5587 0e3f 2166 afbe fe84 873e 802c 6cbc
00000100: ecd6 06be 72b6 7abe 32fe be3e 935c 89be
00000110: 2d71 293f 949d 82be 696e 2cbf cd4a 023f
00000120: ec0e f9be 6e2b c93e 2e0d d83e 0e50 bf3e
00000130: c0fc 44bd 6ae4 973e dade cd3e 03af 16bf
00000140: 2566 acbe 58ee 503e be54 eb3e b86d bf3d
00000150: b11e 0f3f 459f 31bf d068 09be a245 cb3e
00000160: e224 d53e 2cbc 9bbe d22e fe3e f065 e7be
00000170: b961 d3be e6e4 ca3e 68cf 8f3e f2e2 cd3e
00000180: f29e e23e 3afa e03e 1cab 91be ad1a 0f3f
00000190: f763 1bbf f066 2abf ca7c f83e d8f3 97be
000001a0: befd f8be 6a0c edbe 951f 223f 1d26 253f
000001b0: c067 d73d 34ee 673e 48ac f8be a487 873e
000001c0: 7737 043f 6dad 223f 7c07 7a3e b7db 2cbf
000001d0: 63e8 80be be0d 34bf d09d 93bd 5ea7 963e
000001e0: 2853 31be 8079 37be 4cc7 0bbe 7eab d1be
000001f0: 4204 ec3e 40d9 43bd 6066 d63d 3f4c 27bf
00000200: fa2f 97be 32ba 8abe 0b5f d8be c6f4 32bf
00000210: 5a13 a73e ca6e ef3e ec2b 543e 70fd 0e3e
00000220: 68e1 32bf dac1 fd3e 20ec f13c 0602 bbbe
00000230: 104f 30bd 9f0c 123f d911 dcbe 24db 3cbe
00000240: 80df 3cbd da79 b73e 505c 82bd 3eba dc3e
00000250: 930e 113f 1b07 223f 002f ee3d 1d2d 29bf
00000260: 8166 12bf 38cc 28bf d46c 29bf 62ff 20bf
00000270: fe46 1ebf dbe6 9abe 3ea0 1bbf 2a8d 26bf
00000280: de8c cabe 9c8e 12bf 884e 323e c1ff 84be
00000290: 9c49 0b3e 509f babd 52fa d53e 2d22 27bf
000002a0: 52be 22bf 161a c33e 9708 30bf 7864 8fbd
000002b0: 4a19 85be a2cb 973e 6e80 e43e b089 78be
000002c0: 4095 2cbd 70e8 583e 4080 43be 8143 223f
000002d0: 6bdb 193f 7f8c 033f 20b1 9bbd 12c9 12bf
000002e0: 4f3f 1c3f a768 073f 902a 20bf a040 e9be
000002f0: 12fa 11bf bcdc 05be 6e5a 943e 98fd 483e
00000300: 3aaf f5be f26a 06bf 46c4 21bf 0cf8 01bf
00000310: bfa2 253f 693d 30bf 3713 0a3f 7034 71bd
00000320: ed5c 063f d32d bebe 7692 d73e 805f 9abb
00000330: c227 b93e 9b1d 123f d35d ddbe 249c 4a3e
00000340: 645d f2be 797b 31bf 3023 98be 40c9 0dbf
00000350: 5276 e03e 82b0 fdbe 349b 423e 4725 31bf
00000360: 3ea6 a23e da4d c23e c566 343f 93ab 233f
00000370: 7061 82be 985a 79be eada df3e c859 f03d
00000380: 803b 8abe bc51 1d3e 523a 9fbe cb98 2abf
00000390: eaa7 f53e 9336 1b3f ce4e ba3e d32d a9be
000003a0: cae2 fa3e 0ad3 5cbe 58b1 14bf 4070 e93d
000003b0: 0a37 ba3e fe08 b63e 7050 273e b99f 293f
000003c0: 9080 143e 1319 273f b290 e83e d586 2d3f
000003d0: 282d f0be 1e2e de3e 00db 41be 40e6 5c3c
000003e0: 0242 b33e 16c5 ad3e b018 3dbd b959 0d3f
000003f0: e081 683d 9206 04bf 315d 283f 92a5 e93e
0.115801334 -0.017087936 -0.14610988 0.43845934 0.65550977 0.5964673 0.10379875 -0.10389924
-0.6064393 -0.6297265 0.13948464 -0.6373523 -0.32824168 -0.62069213 -0.3620232 0.49856597
0.5670541 0.41865414 -0.13749087 -0.46048063 -0.4997028 -0.25689778 0.2373867 -0.5773275
-0.13329786 0.40687567 0.37449938 0.24626285 0.30489725 -0.107735276 0.661588 -0.46449763
-0.21295226 -0.013857186 -0.5022131 0.22210115 0.64525706 -0.33806002 -0.61357695 -0.36441118
-0.36072704 0.62399524 0.13727373 0.28180158 0.30876416 0.605189 -0.19559819 -0.44102067
-0.0302459 0.3316782 -0.37151754 -0.30255628 -0.18636519 0.050745726 0.37199527 -0.4218666
0.35401958 -0.59831655 -0.20589823 -0.5878471 0.5567525 -0.34257606 0.26468652 -0.0144149065
-0.13167924 -0.2448366 0.3730331 -0.2682844 0.6618832 -0.25510848 -0.6735597 0.50895387
-0.48644197 0.39290947 0.42197555 0.37365764 -0.048092604 0.29666454 0.40209085 -0.58860797
-0.3367168 0.20403421 0.4596309 0.09347099 0.55906206 -0.6938365 -0.13418889 0.39701563
0.41629702 -0.30417 0.49645096 -0.4519496 -0.41285494 0.3962776 0.28087926 0.40212208
0.4426189 0.43940908 -0.2845086 0.5590008 -0.6069941 -0.6656332 0.48532706 -0.29678226
-0.4863109 -0.46298534 0.6332944 0.6451128 0.105178356 0.22649461 -0.4856894 0.26470673
0.5164713 0.63545877 0.24416918 -0.6752276 -0.25177297 -0.7033347 -0.07207835 0.29424566
-0.17316878 -0.17917442 -0.13650244 -0.4095115 0.46096998 -0.047814608 0.10468745 -0.6535072
-0.2952879 -0.2709518 -0.42260012 -0.69904745 0.32631952 0.46764213 0.2071988 0.13963866
-0.6987519 0.4956196 0.029531538 -0.3652498 -0.04304415 0.5705051 -0.42982367 -0.1844297
-0.046111584 0.35835153 -0.063652635 0.43110842 0.56662863 0.6329209 0.11630058 -0.6608446
-0.5718766 -0.65936613 -0.66181684 -0.62889683 -0.61827075 -0.30254254 -0.60791385 -0.6505915
-0.39560598 -0.57248855 0.1741277 -0.25976375 0.13602298 -0.09112418 0.41792542 -0.65286523
-0.63571656 0.3810584 -0.6876311 -0.07001585 -0.25995857 0.29647547 0.44629234 -0.24271274
-0.042134523 0.21182418 -0.19091892 0.6338425 0.6010043 0.51386255 -0.07602143 -0.5733806
0.610341 0.5289406 -0.62564945 -0.45557117 -0.570222 -0.13072485 0.28975242 0.19627988
-0.4798525 -0.52506936 -0.63190114 -0.50769114 0.64701456 -0.68843704 0.5393557 -0.0588879
0.52485543 -0.37144336 0.42103928 -0.0047110915 0.36163145 0.57076424 -0.43235645 0.19786125
-0.47336876 -0.6932903 -0.29714346 -0.5538521 0.4384027 -0.49548727 0.19004518 -0.69197506
0.31767458 0.3795002 0.70469314 0.63933676 -0.25464964 -0.24350965 0.43721706 0.117358744
-0.2699852 0.1536321 -0.31099182 -0.66639394 0.4797967 0.6063015 0.36388248 -0.33042774
0.4900115 -0.2156488 -0.58083105 0.11398363 0.36370116 0.35553735 0.16339278 0.6625934
0.14502168 0.65272635 0.45422894 0.6778386 -0.4690945 0.4339456 -0.18931198 0.01348263
0.35011297 0.33939427 -0.046166122 0.5521503 0.056764483 -0.51572526 0.657672 0.45634133

network.0.bias f4 [128]
00000000: 4e2e ef3e 20c0 cb3c 40c2 cfbe 58eb f93d
00000010: 4a34 02bf be08 f6be bdb0 cfbe 80fa a1bc
00000020: 9f0a 1b3f 2205 b73e c0ea 0e3c a0b6 2abe
00000030: 46ad af3e f485 12be c115 0fbf e0be 503d
00000040: a814 843d 43a6 dabe 1251 aa3e bcea 87be
00000050: e8b5 fcbe 856d 16bf 8202 c23e f41d 233e
00000060: c761 233f 766f dc3e 3af3 a03e 8c5e d6be
00000070: 0f64 d6be e176 213f 1209 cabe c288 64be
00000080: 6e6b e73e 500a 593d ebc1 2f3f a057 85bc
00000090: 2035 d8be a000 633e a4e2 25bf 1da6 2c3f
000000a0: 505f 013d dafc 1bbf ce10 c93e 0731 1e3f
000000b0: 3e9b db3e 0071 97bd c623 fbbe 023f 993e
000000c0: e49b 18be 40da c53c 208b cf3c 00da 12bc
000000d0: 6cd1 473e 433a 27bf 9618 ca3e cb4f 32bf
000000e0: 5187 32bf c422 19be daf9 bbbe 756d 8dbe
000000f0: 80e7 033d 7874 2e3e 47c6 183f 24d2 563e
00000100: 3ef3 d53e dbf6 2ebf 5019 3b3e dc0b 4f3e
00000110: f4e4 44be 4958 16bf b678 75be 8ad4 b03e
00000120: 72ca 05bf d906 203f 8c0e 9abe 0b91 09bf
00000130: d1ad 183f 69b0 1d3f f29e f73e 3f4d 11bf
00000140: 7cd7 b8be c6d0 be3e 4e80 da3e d09b a43d
00000150: dcba 673e f203 8dbe b2db e23e 57d1 2e3f
00000160: 308f 34bf 3eb1 ec3e f173 1e3f 8ac4 cdbe
00000170: 1784 b6be 268e 98be 509c 363d 6ca0 60be
00000180: 881f 0cbf f78f d6be 30c7 073e a491 213e
00000190: 206c 1f3e af85 e0be 20ca 23be 6c8e 81be
000001a0: 9a3c d93e 682b ffbe 63ed 9cbe 1269 b83e
000001b0: 7d58 b3be 26a5 d43e e071 173e 2073 bfbd
000001c0: a9c2 0fbf 0ea9 803e 6e88 82be a818 c4bd
000001d0: 46a5 85be 00dc fbba 882c d1be 408c 32be
000001e0: 18d2 4e3e 7c81 0cbf eec6 bfbe 0055 733d
000001f0: 200b f6be c124 e6be bb4e b7be 6bcf 153f
0.46715015 0.024871886 -0.40577888 0.122030914 -0.50861037 -0.48053545 -0.40564528 -0.019772768
0.6056308 0.35746104 0.008722961 -0.16671228 0.34311885 -0.14308912 -0.5589257 0.050963283
0.06449252 -0.42704973 0.33264977 -0.26546276 -0.49357533 -0.58760864 0.37892538 0.15929395
0.6382107 0.43053788 0.31435567 -0.4186901 -0.41873214 0.6307202 -0.39460045 -0.22317794
0.4519915 0.05298835 0.6865527 -0.016277134 -0.4222803 0.22168207 -0.6479895 0.6744097
0.031585038 -0.60932696 0.39270633 0.6179356 0.42891878 -0.073946 -0.4905073 0.29930884
-0.14903218 0.024151921 0.025334895 -0.008963108 0.19513482 -0.65323275 0.39471883 -0.69653004
-0.69737726 -0.14954668 -0.3671406 -0.27622572 0.032203197 0.17036617 0.5967755 0.209786
0.41787142 -0.6834542 0.18271375 0.20219368 -0.19227964 -0.5872846 -0.23971829 0.34537154
-0.5226203 0.6251045 -0.30089223 -0.53736943 0.5964022 0.61597306 0.48363453 -0.56758493
-0.36101902 0.37268656 0.42676014 0.080375314 0.22629875 -0.27542073 0.4430824 0.6828818
-0.70530987 0.46228975 0.6189566 -0.4018901 -0.35647652 -0.2979595 0.044582665 -0.21936196
-0.5473561 -0.4190671 0.13259578 0.15778214 0.1556859 -0.43851992 -0.15995073 -0.25303972
0.42429048 -0.49837804 -0.30649862 0.36017662 -0.3502845 0.41532248 0.14789534 -0.0934813
-0.561564 0.25128978 -0.25494713 -0.09575015 -0.26102656 -0.0019215345 -0.40854287 -0.17436314
0.20197332 -0.5488508 -0.3745646 0.059407234 -0.48055363 -0.44949916 -0.35802254 0.5851962

network.2.weight f4 [64, 128]
00000000: 47f7 913d ff22 a73d c036 47bc 6a7d 3c3d
00000010: 88f3 4bbc c06d a4ba a515 ab3d 7715 ac3d
00000020: 56e6 d8bc bb8f 963d c0ee c1bb ce56 1c3d
00000030: 0170 983d e573 943d b449 a3bd 4c24 c23c
00000040: 028f 3cbd 181b 5cbd 77a7 97bd 5c26 2fbd
00000050: 012a 27bd f093 243c 5bc0 a6bd 28c3 95bc
00000060: 2624 5f3d 77d8 3bbd b0e4 7dbc 3048 843c
00000070: c0ba 253c 2026 63bb 3069 38bd 4a85 353d
00000080: be5c 163d 50e0 efbb b84c 68bd 18fd f9bc
00000090: e8d5 72bc 4af4 203d 572c 9cbd fc4d 75bd
000000a0: 3773 ad3d b454 5cbd 58ce e03c faa6 2d3d
000000b0: 23b1 ab3d 7897 2e3c 3588 893d 3e91 243d
000000c0: c648 0e3d 7293 133d d46a 39bd a0ec dc3b
000000d0: 920d 13bd e032 20bc 2066 15bd c3a1 4ebd
000000e0: bbc8 a23d f689 0dbd 70a6 0dbc 1263 633d
000000f0: f8a5 9fbd 080d f93c f6eb 673d 6cb2 863c
00000100: 1f20 a63d de6e 1b3d da68 703d f1b5 25bd
00000110: b4e8 9dbd f04d 243c 9a02 333d 7664 0a3d
00000120: dce5 b0bc d82a 263c e0f7 f23b c85b d9bc
00000130: 4a23 8fbd 7096 22bc c436 68bd 109a e7bc
00000140: 4b7f acbd a55c aa3d e643 703d 808c e0bb
00000150: a7f4 1dbd ed31 44bd c1c2 15bd 3a9f 533d
00000160: fe28 173d 349a 9ebd be20 3d3d f31f 863d
00000170: f372 9c3d 006b be39 55a1 83bd baac 593d
00000180: 362c 8ebd 8915 a13d 40d3 a63a b0a8 d03b
00000190: 2063 38bb b6da 403d 9158 67bd e81c eb3c
000001a0: aef1 233d af2b a43d b941 a5bd 5252 603d
000001b0: c0cf 903b de01 603d e0e0 d43c 72a0 683d
000001c0: 6c5b 89bd a8e2 a9bd 8d20 ad3d b0f0 03bd
000001d0: 28f0 a3bc f3b3 3bbd 859a 8ebd 483a 34bc
000001e0: f46b 923c d979 21bd 0af9 783d ea4c 353d
000001f0: b388 a9bd 8076 353b cb77 9c3d 600e 8fbd
00000200: 6e61 493d 5847 023d a03b f83c 3fe8 963d
00000210: 9588 a73d f024 cd3c 2805 01bd 9805 89bd
00000220: b3cf 66bd f0c7 933c c7aa 8cbd 1619 60bd
00000230: 8889 673c aa13 1f3d d16f 23bd 0fae 26bd
00000240: 144d cd3c b87d f3bc 44bd fd3c 10a3 e5bb
00000250: 37a8 3dbd 0a36 263d 13da a63d 9649 2b3d
00000260: eeb4 0fbd a118 aebd 93e2 78bd 3d4e 08bd
00000270: 1862 d1bc 0cdb d83c 0631 533d 24fc 8c3c
00000280: 62d7 9abd a08f f03b c0d9 213c 9792 84bd
00000290: d076 55bc f834 193c 857f b1bd dd1f 9ebd
000002a0: f019 09bc 8ac1 573d 00d4 18bb c071 e2ba
000002b0: 9b9f 963d e626 393d deb3 afbd a1f6 34bd
000002c0: e343 19bd 470a 2abd d89a afbd 3098 bf3b
000002d0: 50ca 11bd 7646 2cbd 1064 e13b ed6f 49bd
000002e0: 1816 03bc 2406 46bd e493 cfbc 0e40 10bd
000002f0: 7d34 44bd 2add 79bd 4010 03bd c1c9 97bd
00000300: 409e 003d a1f7 1abd 807a 603a 77ca 22bd
00000310: 0a3d 8ebd f570 b23d f412 c3bc a0c2 0dbc
00000320: 2d68 09bd f4bb dc3c 4072 5f3c 738a b0bd
00000330: 9809 2a3c d41e c2bc 1928 8d3d 1ea7 763d
00000340: 5c7e 1ebd 647d 063d 1dbb 8ebd 36b5 1e3d
00000350: 939f af3d 42e5 173d fda0 913d 6a86 6e3d
00000360: f872 c63c e783 71bd c67f e6bc e0b6 f83c
00000370: 842e babc 8619 183d 5af0 41bd 021b d6bc
00000380: 631b 5dbd 047c abbc b804 9e3c 5a54 2b3d
00000390: e0fe 103c 50f2 033c e089 20bc 1a9e 95bd
000003a0: d6c4 013d 29ce b43d 5c65 983c 2835 20bc
000003b0: 3459 97bd 2249 4a3d ad1c 963d 44a8 bb3c
000003c0: 5df5 55bd 9325 9ebd 08ed bbbc 579d 83bd
000003d0: ea4e b3bd 788e 003c 667a 783d 6801 b2bd
000003e0: 6b3a 953d 4cb6 29bd 8875 55bd 3550 833d
000003f0: 809e e8bb 6a23 183d 48de 073c 2ddc 61bd
0.071272425 0.08160972 -0.0121590495 0.04601804 -0.012448199 -0.0012544915 0.08353738 0.084025316
-0.02647702 0.07351633 -0.005918354 0.03816872 0.07443238 0.07248668 -0.07973042 0.023698948
-0.04603482 -0.053736776 -0.07404988 -0.04276119 -0.040811542 0.010045037 -0.08142158 -0.018281534
0.054477833 -0.045860734 -0.015496418 0.016147703 0.010115325 -0.0034660175 -0.04502219 0.044316567
0.03670954 -0.0073204413 -0.05671379 -0.030516192 -0.014821507 0.039295472 -0.07625645 -0.059888825
0.08469241 -0.053791717 0.027442142 0.04239557 0.083833955 0.01065623 0.067154326 0.040177576
0.03473737 0.036029287 -0.045267895 0.006742075 -0.035901614 -0.009777755 -0.036474347 -0.050447237
0.079484425 -0.034555398 -0.008645639 0.055514403 -0.07795328 0.030401722 0.056621514 0.0164425
0.08111595 0.037947528 0.058693744 -0.040456716 -0.077104 0.010028347 0.043703653 0.033787213
-0.02159398 0.010142051 0.007414803 -0.026533023 -0.06989153 -0.009923562 -0.056692854 -0.028271705
-0.08422717 0.08318452 0.058658503 -0.0068526864 -0.038563397 -0.047899175 -0.036562685 0.051665522
0.036904328 -0.07744256 0.046173804 0.065490626 0.07639112 0.00036319345 -0.06427256 0.05314324
-0.06942026 0.07865436 0.0012727752 0.0063677654 -0.0028135255 0.04708358 -0.056480948 0.028700307
0.040025406 0.080161445 -0.08069176 0.054766007 0.004419297 0.05468928 0.025986135 0.056793638
-0.067068905 -0.082951844 0.08453474 -0.03221196 -0.020011976 -0.04582591 -0.06963066 -0.011000223
0.017873742 -0.039422844 0.060784377 0.044262804 -0.082780264 0.002768904 0.07640036 -0.06985164
0.04916518 0.03180632 0.030301869 0.07368516 0.08180348 0.025042027 -0.031499058 -0.0669052
-0.05635042 0.018039674 -0.06868511 -0.054711424 0.014131911 0.038837112 -0.03990156 -0.04069334
0.025061168 -0.029723033 0.030974038 -0.007007964 -0.046303 0.04057888 0.08147063 0.041818224
-0.035084657 -0.08500791 -0.060762953 -0.03327774 -0.02555947 0.026471637 0.051560424 0.017210074
-0.07560612 0.00734134 0.009878576 -0.06473272 -0.013028815 0.009351008 -0.086669005 -0.07720921
-0.008368 0.052674808 -0.0023319721 -0.0017276332 0.07354661 0.045203112 -0.08579229 -0.044180516
-0.037418257 -0.041513707 -0.08574456 0.0058469996 -0.03559333 -0.042059384 0.0068783835 -0.049179006
-0.008000873 -0.0483457 -0.025339074 -0.035217337 -0.04790162 -0.061001934 -0.03199792 -0.074115284
0.03140092 -0.037833814 0.0008563176 -0.039743867 -0.06945236 0.08712951 -0.023812748 -0.008652359
-0.033546615 0.026945092 0.013638079 -0.08620157 0.010378264 -0.02369634 0.06892414 0.06021797
-0.038694724 0.032834426 -0.06969283 0.038747035 0.08575358 0.03708387 0.07110784 0.058233656
0.024224743 -0.058963683 -0.028137099 0.03036064 -0.022727259 0.037133716 -0.047348358 -0.026135925
-0.053981196 -0.020933159 0.01928936 0.04182849 0.008849829 0.008053377 -0.009798497 -0.07305546
0.031681858 0.088283844 0.01860302 -0.009778298 -0.07390061 0.04938615 0.07329688 0.022907384
-0.05223595 -0.077220105 -0.022940174 -0.064264946 -0.08755286 0.007846467 0.060663603 -0.086916745
0.07286533 -0.041433617 -0.05211404 0.06411783 -0.007098973 0.03714315 0.008292742 -0.055141617

network.2.bias f4 [64]
00000000: 605d 383c e1ea 5bbd 9008 ea3c 82cb 183d
00000010: e03a 3cbd 4837 c73c 6e75 0abd 3857 78bd
00000020: 40f2 19bc c809 9ebc a907 43bd b8dc 19bc
00000030: f822 7fbd 86c7 533d f01b a4bc 340e 913c
00000040: 587f 1c3c 774b 17bd 7f96 8dbd f834 4f3c
00000050: 0cb0 f93c 5a6c 543d ca1c 2f3d 2bd0 a83d
00000060: 2577 6cbd 22ba abbd 40fc 9ebb 9d29 06bd
00000070: 3a03 0bbd a8db aa3c 69a1 91bd 708c bcbc
00000080: 40af aabb dc47 b1bc c047 893b 40df cdba
00000090: a9d9 adbd ca7b 7a3d 4083 8a3a 6547 8a3d
000000a0: 17fd a83d 23ef 65bd 7866 9cbd 50c5 b73c
000000b0: 7ecf 6ebd 4aa8 143d 6858 23bd 3656 383d
000000c0: 88f9 6ebd 71a1 26bd 7fcc 913d 358e 8a3d
000000d0: 7f3a 8dbd 54ce 01bd e2cb adbd 0f3d 893d
000000e0: 00c3 fa39 1a12 433d b361 aa3d 900b 8e3c
000000f0: 5cf6 b1bc 41b7 913d d8f4 13bc 94d6 983c
0.011252731 -0.053690795 0.028568536 0.037303455 -0.045954585 0.024318352 -0.033803396 -0.060630053
-0.009396136 -0.019291773 -0.047614727 -0.009391002 -0.06228921 0.051703952 -0.020032853 0.017706968
0.0095518455 -0.036937203 -0.069134705 0.012646906 0.030479454 0.051861145 0.042752065 0.0824283
-0.057730813 -0.083851114 -0.004851848 -0.03275453 -0.033938624 0.020856693 -0.07110865 -0.023016185
-0.0052088797 -0.02164071 0.0041894615 -0.0015706792 -0.08488781 0.06115321 0.001056768 0.06751899
0.08251398 -0.05613626 -0.07636732 0.022432953 -0.05830335 0.036293305 -0.039879233 0.045004092
-0.05834344 -0.040681306 0.07119083 0.06765405 -0.06895923 -0.03169091 -0.08486153 0.06701099
0.00047829002 0.047624685 0.08319416 0.017339498 -0.021723919 0.07115031 -0.009030543 0.018657006

network.4.weight f4 [4, 64]
00000000: f452 233d bc73 f9bd 586a 79bd a05b d8bc
00000010: 5c33 f33d 16fa fabd a8d2 6ebd c062 ba3b
00000020: 90b6 903d 6014 83bc f62d 9dbd 40e7 66bc
00000030: a01a 25bd 5ace 893d 84bb 72bd 288a 3d3d
00000040: 241e bcbd 2c13 6abd 1cdd 1abd 006c f33a
00000050: 98e0 5b3d c879 acbc a8e7 e0bd ba42 efbd
00000060: ec27 753d 30c5 f8bd a0cf f8bd 6cc5 ebbd
00000070: 640f 36bd a07c 3dbd c055 3bbb 2014 533c
00000080: e851 94bc 8028 5c3c 8cec 3cbd ce11 a03d
00000090: 8839 ef3c 0c0c 49bd f443 79bd 80a6 7d3b
000000a0: d025 493c cc46 43bd ea04 89bd 8452 ba3d
000000b0: 12ac bb3d b832 453d 2c57 0c3d b84d fbbd
000000c0: 3c35 e53d a092 573c 68b8 fbbd dcd3 dbbd
000000d0: 6ce1 08bd b015 543c f827 203d 9494 1d3d
000000e0: 6042 453d 3075 f2bc 4031 b33b 52c8 9e3d
000000f0: 3cd0 a3bd 9cf6 e2bd 9c5e dabd 8e75 fb3d
00000100: 9869 d43c 2e7b 983d a819 843d 6401 d03d
00000110: e80d e63c 185e 5dbd d0fa 83bc 8092 ee3b
00000120: 40b7 ecbd d451 0fbd 8432 91bd b03e 013c
00000130: f8c8 2ebd 10f0 1cbd bc4e 20bd aa21 e8bd
00000140: 809e 99bb 208d ce3c c2a1 b0bd 1478 5cbd
00000150: 5484 c4bd c424 5a3d d4c3 a93d 84d5 49bd
00000160: f4c2 b63d 20f2 613c 9cd9 d0bd 888d 7abd
00000170: 887e 9fbd b8c1 b63d d831 d9bc f612 e5bd
00000180: 5843 b83d eef7 b93d 8068 9ebd 0ed5 e3bd
00000190: 0cda d13d c01c 44bd be74 f3bd 82b7 e1bd
000001a0: 1a18 b13d f0ee 17bd 50a5 b8bd 60d5 4d3c
000001b0: 6857 71bd a26b 863d a029 c3bb 887c 2c3d
000001c0: e8e6 aebd 603b 2cbc e878 8bbd 9894 2d3d
000001d0: fcee 4a3d 88a7 cc3c e0b4 b93b 5022 a33d
000001e0: da29 873d 60ba 1bbc ccef fbbd f631 a33d
000001f0: 108b cdbd 9c20 753d 6e9f e83d 1a53 bb3d
00000200: 6605 c9bd e288 e8bd 94a9 25bd e091 283d
00000210: 10a2 97bd d07d c03c 74dc 54bd e26d efbd
00000220: 60b1 163c 3acb fdbd 3cf3 453d 088d 1f3d
00000230: 3042 91bc d22a e83d 4004 f33c f0d2 d83d
00000240: 0293 96bd 0c92 8b3d 0012 333a e8bb 143d
00000250: c0b0 12bb d261 e5bd b02f 053c 00bb 8ebc
00000260: d459 ebbd 38f5 993c 9864 30bd a634 e0bd
00000270: 3875 223d a68c ae3d 4097 423d be57 cb3d
00000280: 7084 f03d 3085 ee3d 5837 073d 84c1 2abd
00000290: 8c05 5dbd f2fc 873d b01d b53d 905a 413c
000002a0: 6a84 d6bd 6839 123d 182a 1b3d e89d f3bc
000002b0: 90bc 043c 7c04 2b3d e625 bf3d 40fd fa3d
000002c0: eacb 893d 6a3a c33d 00e3 05ba 00d9 62bd
000002d0: 5a51 fa3d 80d9 f5ba cc22 edbd d8c6 7b3d
000002e0: 66cc d53d 8083 eabc 8ee0 a43d d88d fcbd
000002f0: 1c8a e13d e402 c63d 6051 92bc 425b b13d
00000300: c4ca 8bbd c223 e7bd fc7c e23d 3457 9b3d
00000310: 347c 4abd 40b8 a33d 6c58 ff3d 48f2 603d
00000320: 784b 733d c4c5 b1bd c665 bc3d 982c c1bc
00000330: 764f c23d d65f c53d 34ab 71bd 8802 263d
00000340: e4b2 5a3d 6a0b b5bd b46f 00bd c434 f9bd
00000350: 0e5a de3d bcfe e53d c8fb bd3c 100d a1bd
00000360: a89d ed3d ac4f 003d 60d7 a23b 0004 fab9
00000370: 2abc b93d 5057 563c 14cc 883d 842d 04bd
00000380: 80a5 c5bc 927a d2bd 5097 d73d c873 b63c
00000390: 8c2a e7bd 0086 4d3b 18fb c9bd 00e0 ccbd
000003a0: 30b3 4dbd 00e7 683a 2ca3 573d f416 973d
000003b0: c08a 38bc 4832 c2bd bc06 01bd 20b0 8cbc
000003c0: 003f acba e0aa b2bd d064 d93c 5005 ce3d
000003d0: 2e70 93bd 20bc b43c 5043 183c 1cfc b5bd
000003e0: 6097 d23b 80e0 b4bd b633 b03d 7c3f 75bd
000003f0: 5200 ed3d dafc fe3d 0cb3 99bd 70b7 b6bc
0.039874032 -0.12180278 -0.060892433 -0.026410878 0.118750304 -0.12254731 -0.058306366 0.0056880414
0.07066071 -0.016000926 -0.07674782 -0.01409322 -0.040308595 0.067288116 -0.05926086 0.046274334
-0.09185436 -0.05714719 -0.037808523 0.0018571615 0.053680986 -0.021054164 -0.10981685 -0.11682649
0.059852526 -0.121469855 -0.12148976 -0.115122646 -0.04444827 -0.04626143 -0.0028585047 0.012883216
-0.018105462 0.01343739 -0.046124026 0.07815896 0.029202238 -0.049083754 -0.06085582 0.0038703978
0.012277082 -0.04767494 -0.066903904 0.0909777 0.09163679 0.048144072 0.03426282 -0.12270683
0.11191794 0.013157517 -0.12291032 -0.10733768 -0.033418104 0.012944624 0.039100617 0.038471773
0.048159003 -0.029596895 0.0054685175 0.07753052 -0.07998702 -0.11082193 -0.106625766 0.12278281
0.025929257 0.0744537 0.06450206 0.10156515 0.028082803 -0.054044813 -0.016110808 0.0072806478
-0.1155839 -0.034990147 -0.07089713 0.007888481 -0.042672127 -0.03831488 -0.039137587 -0.11334546
-0.004688084 0.025213778 -0.08624603 -0.053825453 -0.09595552 0.05325772 0.082893044 -0.04927589
0.08923903 0.013790637 -0.10197756 -0.06117013 -0.07787806 0.08923668 -0.026513025 -0.11185257
0.0899722 0.09080492 -0.077347755 -0.11124621 0.10246667 -0.04787898 -0.11887501 -0.110213295
0.08647175 -0.037093103 -0.09015906 0.01256308 -0.058921248 0.06563498 -0.00595589 0.04211095
-0.085401356 -0.010512203 -0.068101704 0.04237804 0.04954432 0.024982229 0.005667314 0.07965529
0.065997794 -0.0095048845 -0.12301597 0.07968514 -0.1003629 0.05984555 0.11358534 0.0914671
-0.09815483 -0.11354233 -0.040444925 0.041154742 -0.07403958 0.023497492 -0.051968053 -0.1169088
0.009197563 -0.12392278 0.04832767 0.038952857 -0.017731756 0.11336292 0.029665112 0.10587108
-0.07352258 0.068149656 0.00068309903 0.036312014 -0.0022383183 -0.11200298 0.008129045 -0.017423153
-0.11491743 0.018793687 -0.043064684 -0.10947542 0.03966257 0.0852292 0.047507524 0.09928845
0.117440104 0.11646497 0.033011764 -0.041688457 -0.053960368 0.06640042 0.08843553 0.011801377
-0.10474475 0.035699278 0.03788194 -0.029738382 0.008101597 0.041752324 0.093334004 0.12255335
0.06728347 0.09532626 -0.0005107373 -0.05538273 0.12222548 -0.0018756837 -0.115789026 0.06146893
0.104393765 -0.028627157 0.08050643 -0.12331742 0.110126704 0.0966852 -0.017861068 0.08659984
-0.06825784 -0.11286117 0.11058995 0.07584992 -0.049434856 0.07994127 0.12468037 0.054918557
0.059398144 -0.08680299 0.09199099 -0.023580834 0.09487812 0.0963742 -0.059001163 0.040529758
0.05339326 -0.08840068 -0.03135653 -0.12168267 0.1085702 0.11230227 0.023191348 -0.078638196
0.11602336 0.03132598 0.0049695224 -0.00047686696 0.090690926 0.01308234 0.0667955 -0.03226997
-0.024126768 -0.10277285 0.105269074 0.022272006 -0.11287412 0.0031360388 -0.098623455 -0.10003662
-0.050219715 0.00088845193 0.052645847 0.07377425 -0.011263549 -0.09482247 -0.031500563 -0.017173827
-0.0013141334 -0.08723998 0.026537329 0.10059607 -0.07199131 0.022062361 0.009293392 -0.08885977
0.0064267367 -0.088318825 0.08603613 -0.059874997 0.11572327 0.12450571 -0.075048536 -0.022304267

network.4.bias f4 [4]
00000000: 96af fbbd 2012 2ebc a46c 27bd 32ac d03d
-0.1228935 -0.0106244385 -0.040875092 0.10189094

network.0.weight f4 [128, 2]
00000000: 4029 ed3d 00fc 8bbc d49d 15be be7d e03e
00000010: 7dcf 273f 15b2 183f 7094 d43d 20c9 d4bd
00000020: 9b3f 1bbf c235 21bf 10d5 0e3e 8529 23bf
00000030: 4b0f a8be aee5 1ebf 1b5b b9be 0a44 ff3e
00000040: 752a 113f d659 d63e 68ca 0cbe 1ec4 ebbe
00000050: 0cd9 ffbe 1b88 83be 8015 733e bccb 13bf
00000060: 3c7f 08be 0252 d03e 62be bf3e 542c 7c3e
00000070: 7e1b 9c3e 50a4 dcbd d55d 293f a2d2 edbe
00000080: 2810 5abe 4009 63bc 0a91 00bf 7c6e 633e
00000090: 912f 253f 3416 adbe 6113 1dbf 1a94 babe
000000a0: 37b1 b8be 27be 1f3f 7c91 0c3e 4c48 903e
000000b0: 5616 9e3e abed 1a3f e44a 48be 76cd e1be
000000c0: 40c6 f7bc bad1 a93e 8c37 bebe a8e8 9abe
000000d0: 84d6 3ebe c0da 4f3d 2a76 be3e e6fe d7be
000000e0: 0e42 b53e 462b 19bf fcd6 52be 267d 16bf
000000f0: 5587 0e3f 2166 afbe fe84 873e 802c 6cbc
00000100: ecd6 06be 72b6 7abe 32fe be3e 935c 89be
00000110: 2d71 293f 949d 82be 696e 2cbf cd4a 023f
00000120: ec0e f9be 6e2b c93e 2e0d d83e 0e50 bf3e
00000130: c0fc 44bd 6ae4 973e dade cd3e 03af 16bf
00000140: 2566 acbe 58ee 503e be54 eb3e b86d bf3d
00000150: b11e 0f3f 459f 31bf d068 09be a245 cb3e
00000160: e224 d53e 2cbc 9bbe d22e fe3e f065 e7be
00000170: b961 d3be e6e4 ca3e 68cf 8f3e f2e2 cd3e
00000180: f29e e23e 3afa e03e 1cab 91be ad1a 0f3f
00000190: f763 1bbf f066 2abf ca7c f83e d8f3 97be
000001a0: befd f8be 6a0c edbe 951f 223f 1d26 253f
000001b0: c067 d73d 34ee 673e 48ac f8be a487 873e
000001c0: 7737 043f 6dad 223f 7c07 7a3e b7db 2cbf
000001d0: 63e8 80be be0d 34bf d09d 93bd 5ea7 963e
000001e0: 2853 31be 8079 37be 4cc7 0bbe 7eab d1be
000001f0: 4204 ec3e 40d9 43bd 6066 d63d 3f4c 27bf
00000200: fa2f 97be 32ba 8abe 0b5f d8be c6f4 32bf
00000210: 5a13 a73e ca6e ef3e ec2b 543e 70fd 0e3e
00000220: 68e1 32bf dac1 fd3e 20ec f13c 0602 bbbe
00000230: 104f 30bd 9f0c 123f d911 dcbe 24db 3cbe
00000240: 80df 3cbd da79 b73e 505c 82bd 3eba dc3e
00000250: 930e 113f 1b07 223f 002f ee3d 1d2d 29bf
00000260: 8166 12bf 38cc 28bf d46c 29bf 62ff 20bf
00000270: fe46 1ebf dbe6 9abe 3ea0 1bbf 2a8d 26bf
00000280: de8c cabe 9c8e 12bf 884e 323e c1ff 84be
00000290: 9c49 0b3e 509f babd 52fa d53e 2d22 27bf
000002a0: 52be 22bf 161a c33e 9708 30bf 7864 8fbd
000002b0: 4a19 85be a2cb 973e 6e80 e43e b089 78be
000002c0: 4095 2cbd 70e8 583e 4080 43be 8143 223f
000002d0: 6bdb 193f 7f8c 033f 20b1 9bbd 12c9 12bf
000002e0: 4f3f 1c3f a768 073f 902a 20bf a040 e9be
000002f0: 12fa 11bf bcdc 05be 6e5a 943e 98fd 483e
00000300: 3aaf f5be f26a 06bf 46c4 21bf 0cf8 01bf
00000310: bfa2 253f 693d 30bf 3713 0a3f 7034 71bd
00000320: ed5c 063f d32d bebe 7692 d73e 805f 9abb
00000330: c227 b93e 9b1d 123f d35d ddbe 249c 4a3e
00000340: 645d f2be 797b 31bf 3023 98be 40c9 0dbf
00000350: 5276 e03e 82b0 fdbe 349b 423e 4725 31bf
00000360: 3ea6 a23e da4d c23e c566 343f 93ab 233f
00000370: 7061 82be 985a 79be eada df3e c859 f03d
00000380: 803b 8abe bc51 1d3e 523a 9fbe cb98 2abf
00000390: eaa7 f53e 9336 1b3f ce4e ba3e d32d a9be
000003a0: cae2 fa3e 0ad3 5cbe 58b1 14bf 4070 e93d
000003b0: 0a37 ba3e fe08 b63e 7050 273e b99f 293f
000003c0: 9080 143e 1319 273f b290 e83e d586 2d3f
000003d0: 282d f0be 1e2e de3e 00db 41be 40e6 5c3c
000003e0: 0242 b33e 16c5 ad3e b018 3dbd b959 0d3f
000003f0: e081 683d 9206 04bf 315d 283f 92a5 e93e
0.115801334 -0.017087936 -0.14610988 0.43845934 0.65550977 0.5964673 0.10379875 -0.10389924
-0.6064393 -0.6297265 0.13948464 -0.6373523 -0.32824168 -0.62069213 -0.3620232 0.49856597
0.5670541 0.41865414 -0.13749087 -0.46048063 -0.4997028 -0.25689778 0.2373867 -0.5773275
-0.13329786 0.40687567 0.37449938 0.24626285 0.30489725 -0.107735276 0.661588 -0.46449763
-0.21295226 -0.013857186 -0.5022131 0.22210115 0.64525706 -0.33806002 -0.61357695 -0.36441118
-0.36072704 0.62399524 0.13727373 0.28180158 0.30876416 0.605189 -0.19559819 -0.44102067
-0.0302459 0.3316782 -0.37151754 -0.30255628 -0.18636519 0.050745726 0.37199527 -0.4218666
0.35401958 -0.59831655 -0.20589823 -0.5878471 0.5567525 -0.34257606 0.26468652 -0.0144149065
-0.13167924 -0.2448366 0.3730331 -0.2682844 0.6618832 -0.25510848 -0.6735597 0.50895387
-0.48644197 0.39290947 0.42197555 0.37365764 -0.048092604 0.29666454 0.40209085 -0.58860797
-0.3367168 0.20403421 0.4596309 0.09347099 0.55906206 -0.6938365 -0.13418889 0.39701563
0.41629702 -0.30417 0.49645096 -0.4519496 -0.41285494 0.3962776 0.28087926 0.40212208
0.4426189 0.43940908 -0.2845086 0.5590008 -0.6069941 -0.6656332 0.48532706 -0.29678226
-0.4863109 -0.46298534 0.6332944 0.6451128 0.105178356 0.22649461 -0.4856894 0.26470673
0.5164713 0.63545877 0.24416918 -0.6752276 -0.25177297 -0.7033347 -0.07207835 0.29424566
-0.17316878 -0.17917442 -0.13650244 -0.4095115 0.46096998 -0.047814608 0.10468745 -0.6535072
-0.2952879 -0.2709518 -0.42260012 -0.69904745 0.32631952 0.46764213 0.2071988 0.13963866
-0.6987519 0.4956196 0.029531538 -0.3652498 -0.04304415 0.5705051 -0.42982367 -0.1844297
-0.046111584 0.35835153 -0.063652635 0.43110842 0.56662863 0.6329209 0.11630058 -0.6608446
-0.5718766 -0.65936613 -0.66181684 -0.62889683 -0.61827075 -0.30254254 -0.60791385 -0.6505915
-0.39560598 -0.57248855 0.1741277 -0.25976375 0.13602298 -0.09112418 0.41792542 -0.65286523
-0.63571656 0.3810584 -0.6876311 -0.07001585 -0.25995857 0.29647547 0.44629234 -0.24271274
-0.042134523 0.21182418 -0.19091892 0.6338425 0.6010043 0.51386255 -0.07602143 -0.5733806
0.610341 0.5289406 -0.62564945 -0.45557117 -0.570222 -0.13072485 0.28975242 0.19627988
-0.4798525 -0.52506936 -0.63190114 -0.50769114 0.64701456 -0.68843704 0.5393557 -0.0588879
0.52485543 -0.37144336 0.42103928 -0.0047110915 0.36163145 0.57076424 -0.43235645 0.19786125
-0.47336876 -0.6932903 -0.29714346 -0.5538521 0.4384027 -0.49548727 0.19004518 -0.69197506
0.31767458 0.3795002 0.70469314 0.63933676 -0.25464964 -0.24350965 0.43721706 0.117358744
-0.2699852 0.1536321 -0.31099182 -0.66639394 0.4797967 0.6063015 0.36388248 -0.33042774
0.4900115 -0.2156488 -0.58083105 0.11398363 0.36370116 0.35553735 0.16339278 0.6625934
0.14502168 0.65272635 0.45422894 0.6778386 -0.4690945 0.4339456 -0.18931198 0.01348263
0.35011297 0.33939427 -0.046166122 0.5521503 0.056764483 -0.51572526 0.657672 0.45634133

network.0.bias f4 [128]
00000000: 4e2e ef3e 20c0 cb3c 40c2 cfbe 58eb f93d
00000010: 4a34 02bf be08 f6be bdb0 cfbe 80fa a1bc
00000020: 9f0a 1b3f 2205 b73e c0ea 0e3c a0b6 2abe
00000030: 46ad af3e f485 12be c115 0fbf e0be 503d
00000040: a814 843d 43a6 dabe 1251 aa3e bcea 87be
00000050: e8b5 fcbe 856d 16bf 8202 c23e f41d 233e
00000060: c761 233f 766f dc3e 3af3 a03e 8c5e d6be
00000070: 0f64 d6be e176 213f 1209 cabe c288 64be
00000080: 6e6b e73e 500a 593d ebc1 2f3f a057 85bc
00000090: 2035 d8be a000 633e a4e2 25bf 1da6 2c3f
000000a0: 505f 013d dafc 1bbf ce10 c93e 0731 1e3f
000000b0: 3e9b db3e 0071 97bd c623 fbbe 023f 993e
000000c0: e49b 18be 40da c53c 208b cf3c 00da 12bc
000000d0: 6cd1 473e 433a 27bf 9618 ca3e cb4f 32bf
000000e0: 5187 32bf c422 19be daf9 bbbe 756d 8dbe
000000f0: 80e7 033d 7874 2e3e 47c6 183f 24d2 563e
00000100: 3ef3 d53e dbf6 2ebf 5019 3b3e dc0b 4f3e
00000110: f4e4 44be 4958 16bf b678 75be 8ad4 b03e
00000120: 72ca 05bf d906 203f 8c0e 9abe 0b91 09bf
00000130: d1ad 183f 69b0 1d3f f29e f73e 3f4d 11bf
00000140: 7cd7 b8be c6d0 be3e 4e80 da3e d09b a43d
00000150: dcba 673e f203 8dbe b2db e23e 57d1 2e3f
00000160: 308f 34bf 3eb1 ec3e f173 1e3f 8ac4 cdbe
00000170: 1784 b6be 268e 98be 509c 363d 6ca0 60be
00000180: 881f 0cbf f78f d6be 30c7 073e a491 213e
00000190: 206c 1f3e af85 e0be 20ca 23be 6c8e 81be
000001a0: 9a3c d93e 682b ffbe 63ed 9cbe 1269 b83e
000001b0: 7d58 b3be 26a5 d43e e071 173e 2073 bfbd
000001c0: a9c2 0fbf 0ea9 803e 6e88 82be a818 c4bd
000001d0: 46a5 85be 00dc fbba 882c d1be 408c 32be
000001e0: 18d2 4e3e 7c81 0cbf eec6 bfbe 0055 733d
000001f0: 200b f6be c124 e6be bb4e b7be 6bcf 153f
0.46715015 0.024871886 -0.40577888 0.122030914 -0.50861037 -0.48053545 -0.40564528 -0.019772768
0.6056308 0.35746104 0.008722961 -0.16671228 0.34311885 -0.14308912 -0.5589257 0.050963283
0.06449252 -0.42704973 0.33264977 -0.26546276 -0.49357533 -0.58760864 0.37892538 0.15929395
0.6382107 0.43053788 0.31435567 -0.4186901 -0.41873214 0.6307202 -0.39460045 -0.22317794
0.4519915 0.05298835 0.6865527 -0.016277134 -0.4222803 0.22168207 -0.6479895 0.6744097
0.031585038 -0.60932696 0.39270633 0.6179356 0.42891878 -0.073946 -0.4905073 0.29930884
-0.14903218 0.024151921 0.025334895 -0.008963108 0.19513482 -0.65323275 0.39471883 -0.69653004
-0.69737726 -0.14954668 -0.3671406 -0.27622572 0.032203197 0.17036617 0.5967755 0.209786
0.41787142 -0.6834542 0.18271375 0.20219368 -0.19227964 -0.5872846 -0.23971829 0.34537154
-0.5226203 0.6251045 -0.30089223 -0.53736943 0.5964022 0.61597306 0.48363453 -0.56758493
-0.36101902 0.37268656 0.42676014 0.080375314 0.22629875 -0.27542073 0.4430824 0.6828818
-0.70530987 0.46228975 0.6189566 -0.4018901 -0.35647652 -0.2979595 0.044582665 -0.21936196
-0.5473561 -0.4190671 0.13259578 0.15778214 0.1556859 -0.43851992 -0.15995073 -0.25303972
0.42429048 -0.49837804 -0.30649862 0.36017662 -0.3502845 0.41532248 0.14789534 -0.0934813
-0.561564 0.25128978 -0.25494713 -0.09575015 -0.26102656 -0.0019215345 -0.40854287 -0.17436314
0.20197332 -0.5488508 -0.3745646 0.059407234 -0.48055363 -0.44949916 -0.35802254 0.5851962

network.2.weight f4 [64, 128]
00000000: 47f7 913d ff22 a73d c036 47bc 6a7d 3c3d
00000010: 88f3 4bbc c06d a4ba a515 ab3d 7715 ac3d
00000020: 56e6 d8bc bb8f 963d c0ee c1bb ce56 1c3d
00000030: 0170 983d e573 943d b449 a3bd 4c24 c23c
00000040: 028f 3cbd 181b 5cbd 77a7 97bd 5c26 2fbd
00000050: 012a 27bd f093 243c 5bc0 a6bd 28c3 95bc
00000060: 2624 5f3d 77d8 3bbd b0e4 7dbc 3048 843c
00000070: c0ba 253c 2026 63bb 3069 38bd 4a85 353d
00000080: be5c 163d 50e0 efbb b84c 68bd 18fd f9bc
00000090: e8d5 72bc 4af4 203d 572c 9cbd fc4d 75bd
000000a0: 3773 ad3d b454 5cbd 58ce e03c faa6 2d3d
000000b0: 23b1 ab3d 7897 2e3c 3588 893d 3e91 243d
000000c0: c648 0e3d 7293 133d d46a 39bd a0ec dc3b
000000d0: 920d 13bd e032 20bc 2066 15bd c3a1 4ebd
000000e0: bbc8 a23d f689 0dbd 70a6 0dbc 1263 633d
000000f0: f8a5 9fbd 080d f93c f6eb 673d 6cb2 863c
00000100: 1f20 a63d de6e 1b3d da68 703d f1b5 25bd
00000110: b4e8 9dbd f04d 243c 9a02 333d 7664 0a3d
00000120: dce5 b0bc d82a 263c e0f7 f23b c85b d9bc
00000130: 4a23 8fbd 7096 22bc c436 68bd 109a e7bc
00000140: 4b7f acbd a55c aa3d e643 703d 808c e0bb
00000150: a7f4 1dbd ed31 44bd c1c2 15bd 3a9f 533d
00000160: fe28 173d 349a 9ebd be20 3d3d f31f 863d
00000170: f372 9c3d 006b be39 55a1 83bd baac 593d
00000180: 362c 8ebd 8915 a13d 40d3 a63a b0a8 d03b
00000190: 2063 38bb b6da 403d 9158 67bd e81c eb3c
000001a0: aef1 233d af2b a43d b941 a5bd 5252 603d
000001b0: c0cf 903b de01 603d e0e0 d43c 72a0 683d
000001c0: 6c5b 89bd a8e2 a9bd 8d20 ad3d b0f0 03bd
000001d0: 28f0 a3bc f3b3 3bbd 859a 8ebd 483a 34bc
000001e0: f46b 923c d979 21bd 0af9 783d ea4c 353d
000001f0: b388 a9bd 8076 353b cb77 9c3d 600e 8fbd
00000200: 6e61 493d 5847 023d a03b f83c 3fe8 963d
00000210: 9588 a73d f024 cd3c 2805 01bd 9805 89bd
00000220: b3cf 66bd f0c7 933c c7aa 8cbd 1619 60bd
00000230: 8889 673c aa13 1f3d d16f 23bd 0fae 26bd
00000240: 144d cd3c b87d f3bc 44bd fd3c 10a3 e5bb
00000250: 37a8 3dbd 0a36 263d 13da a63d 9649 2b3d
00000260: eeb4 0fbd a118 aebd 93e2 78bd 3d4e 08bd
00000270: 1862 d1bc 0cdb d83c 0631 533d 24fc 8c3c
00000280: 62d7 9abd a08f f03b c0d9 213c 9792 84bd
00000290: d076 55bc f834 193c 857f b1bd dd1f 9ebd
000002a0: f019 09bc 8ac1 573d 00d4 18bb c071 e2ba
000002b0: 9b9f 963d e626 393d deb3 afbd a1f6 34bd
000002c0: e343 19bd 470a 2abd d89a afbd 3098 bf3b
000002d0: 50ca 11bd 7646 2cbd 1064 e13b ed6f 49bd
000002e0: 1816 03bc 2406 46bd e493 cfbc 0e40 10bd
000002f0: 7d34 44bd 2add 79bd 4010 03bd c1c9 97bd
00000300: 409e 003d a1f7 1abd 807a 603a 77ca 22bd
00000310: 0a3d 8ebd f570 b23d f412 c3bc a0c2 0dbc
00000320: 2d68 09bd f4bb dc3c 4072 5f3c 738a b0bd
00000330: 9809 2a3c d41e c2bc 1928 8d3d 1ea7 763d
00000340: 5c7e 1ebd 647d 063d 1dbb 8ebd 36b5 1e3d
00000350: 939f af3d 42e5 173d fda0 913d 6a86 6e3d
00000360: f872 c63c e783 71bd c67f e6bc e0b6 f83c
00000370: 842e babc 8619 183d 5af0 41bd 021b d6bc
00000380: 631b 5dbd 047c abbc b804 9e3c 5a54 2b3d
00000390: e0fe 103c 50f2 033c e089 20bc 1a9e 95bd
000003a0: d6c4 013d 29ce b43d 5c65 983c 2835 20bc
000003b0: 3459 97bd 2249 4a3d ad1c 963d 44a8 bb3c
000003c0: 5df5 55bd 9325 9ebd 08ed bbbc 579d 83bd
000003d0: ea4e b3bd 788e 003c 667a 783d 6801 b2bd
000003e0: 6b3a 953d 4cb6 29bd 8875 55bd 3550 833d
000003f0: 809e e8bb 6a23 183d 48de 073c 2ddc 61bd
0.071272425 0.08160972 -0.0121590495 0.04601804 -0.012448199 -0.0012544915 0.08353738 0.084025316
-0.02647702 0.07351633 -0.005918354 0.03816872 0.07443238 0.07248668 -0.07973042 0.023698948
-0.04603482 -0.053736776 -0.07404988 -0.04276119 -0.040811542 0.010045037 -0.08142158 -0.018281534
0.054477833 -0.045860734 -0.015496418 0.016147703 0.010115325 -0.0034660175 -0.04502219 0.044316567
0.03670954 -0.0073204413 -0.05671379 -0.030516192 -0.014821507 0.039295472 -0.07625645 -0.059888825
0.08469241 -0.053791717 0.027442142 0.04239557 0.083833955 0.01065623 0.067154326 0.040177576
0.03473737 0.036029287 -0.045267895 0.006742075 -0.035901614 -0.009777755 -0.036474347 -0.050447237
0.079484425 -0.034555398 -0.008645639 0.055514403 -0.07795328 0.030401722 0.056621514 0.0164425
0.08111595 0.037947528 0.058693744 -0.040456716 -0.077104 0.010028347 0.043703653 0.033787213
-0.02159398 0.010142051 0.007414803 -0.026533023 -0.06989153 -0.009923562 -0.056692854 -0.028271705
-0.08422717 0.08318452 0.058658503 -0.0068526864 -0.038563397 -0.047899175 -0.036562685 0.051665522
0.036904328 -0.07744256 0.046173804 0.065490626 0.07639112 0.00036319345 -0.06427256 0.05314324
-0.06942026 0.07865436 0.0012727752 0.0063677654 -0.0028135255 0.04708358 -0.056480948 0.028700307
0.040025406 0.080161445 -0.08069176 0.054766007 0.004419297 0.05468928 0.025986135 0.056793638
-0.067068905 -0.082951844 0.08453474 -0.03221196 -0.020011976 -0.04582591 -0.06963066 -0.011000223
0.017873742 -0.039422844 0.060784377 0.044262804 -0.082780264 0.002768904 0.07640036 -0.06985164
0.04916518 0.03180632 0.030301869 0.07368516 0.08180348 0.025042027 -0.031499058 -0.0669052
-0.05635042 0.018039674 -0.06868511 -0.054711424 0.014131911 0.038837112 -0.03990156 -0.04069334
0.025061168 -0.029723033 0.030974038 -0.007007964 -0.046303 0.04057888 0.08147063 0.041818224
-0.035084657 -0.08500791 -0.060762953 -0.03327774 -0.02555947 0.026471637 0.051560424 0.017210074
-0.07560612 0.00734134 0.009878576 -0.06473272 -0.013028815 0.009351008 -0.086669005 -0.07720921
-0.008368 0.052674808 -0.0023319721 -0.0017276332 0.07354661 0.045203112 -0.08579229 -0.044180516
-0.037418257 -0.041513707 -0.08574456 0.0058469996 -0.03559333 -0.042059384 0.0068783835 -0.049179006
-0.008000873 -0.0483457 -0.025339074 -0.035217337 -0.04790162 -0.061001934 -0.03199792 -0.074115284
0.03140092 -0.037833814 0.0008563176 -0.039743867 -0.06945236 0.08712951 -0.023812748 -0.008652359
-0.033546615 0.026945092 0.013638079 -0.08620157 0.010378264 -0.02369634 0.06892414 0.06021797
-0.038694724 0.032834426 -0.06969283 0.038747035 0.08575358 0.03708387 0.07110784 0.058233656
0.024224743 -0.058963683 -0.028137099 0.03036064 -0.022727259 0.037133716 -0.047348358 -0.026135925
-0.053981196 -0.020933159 0.01928936 0.04182849 0.008849829 0.008053377 -0.009798497 -0.07305546
0.031681858 0.088283844 0.01860302 -0.009778298 -0.07390061 0.04938615 0.07329688 0.022907384
-0.05223595 -0.077220105 -0.022940174 -0.064264946 -0.08755286 0.007846467 0.060663603 -0.086916745
0.07286533 -0.041433617 -0.05211404 0.06411783 -0.007098973 0.03714315 0.008292742 -0.055141617

network.2.bias f4 [64]
00000000: 605d 383c e1ea 5bbd 9008 ea3c 82cb 183d
00000010: e03a 3cbd 4837 c73c 6e75 0abd 3857 78bd
00000020: 40f2 19bc c809 9ebc a907 43bd b8dc 19bc
00000030: f822 7fbd 86c7 533d f01b a4bc 340e 913c
00000040: 587f 1c3c 774b 17bd 7f96 8dbd f834 4f3c
00000050: 0cb0 f93c 5a6c 543d ca1c 2f3d 2bd0 a83d
00000060: 2577 6cbd 22ba abbd 40fc 9ebb 9d29 06bd
00000070: 3a03 0bbd a8db aa3c 69a1 91bd 708c bcbc
00000080: 40af aabb dc47 b1bc c047 893b 40df cdba
00000090: a9d9 adbd ca7b 7a3d 4083 8a3a 6547 8a3d
000000a0: 17fd a83d 23ef 65bd 7866 9cbd 50c5 b73c
000000b0: 7ecf 6ebd 4aa8 143d 6858 23bd 3656 383d
000000c0: 88f9 6ebd 71a1 26bd 7fcc 913d 358e 8a3d
000000d0: 7f3a 8dbd 54ce 01bd e2cb adbd 0f3d 893d
000000e0: 00c3 fa39 1a12 433d b361 aa3d 900b 8e3c
000000f0: 5cf6 b1bc 41b7 913d d8f4 13bc 94d6 983c
0.011252731 -0.053690795 0.028568536 0.037303455 -0.045954585 0.024318352 -0.033803396 -0.060630053
-0.009396136 -0.019291773 -0.047614727 -0.009391002 -0.06228921 0.051703952 -0.020032853 0.017706968
0.0095518455 -0.036937203 -0.069134705 0.012646906 0.030479454 0.051861145 0.042752065 0.0824283
-0.057730813 -0.083851114 -0.004851848 -0.03275453 -0.033938624 0.020856693 -0.07110865 -0.023016185
-0.0052088797 -0.02164071 0.0041894615 -0.0015706792 -0.08488781 0.06115321 0.001056768 0.06751899
0.08251398 -0.05613626 -0.07636732 0.022432953 -0.05830335 0.036293305 -0.039879233 0.045004092
-0.05834344 -0.040681306 0.07119083 0.06765405 -0.06895923 -0.03169091 -0.08486153 0.06701099
0.00047829002 0.047624685 0.08319416 0.017339498 -0.021723919 0.07115031 -0.009030543 0.018657006

network.4.weight f4 [4, 64]
00000000: f452 233d bc73 f9bd 586a 79bd a05b d8bc
00000010: 5c33 f33d 16fa fabd a8d2 6ebd c062 ba3b
00000020: 90b6 903d 6014 83bc f62d 9dbd 40e7 66bc
00000030: a01a 25bd 5ace 893d 84bb 72bd 288a 3d3d
00000040: 241e bcbd 2c13 6abd 1cdd 1abd 006c f33a
00000050: 98e0 5b3d c879 acbc a8e7 e0bd ba42 efbd
00000060: ec27 753d 30c5 f8bd a0cf f8bd 6cc5 ebbd
00000070: 640f 36bd a07c 3dbd c055 3bbb 2014 533c
00000080: e851 94bc 8028 5c3c 8cec 3cbd ce11 a03d
00000090: 8839 ef3c 0c0c 49bd f443 79bd 80a6 7d3b
000000a0: d025 493c cc46 43bd ea04 89bd 8452 ba3d
000000b0: 12ac bb3d b832 453d 2c57 0c3d b84d fbbd
000000c0: 3c35 e53d a092 573c 68b8 fbbd dcd3 dbbd
000000d0: 6ce1 08bd b015 543c f827 203d 9494 1d3d
000000e0: 6042 453d 3075 f2bc 4031 b33b 52c8 9e3d
000000f0: 3cd0 a3bd 9cf6 e2bd 9c5e dabd 8e75 fb3d
00000100: 9869 d43c 2e7b 983d a819 843d 6401 d03d
00000110: e80d e63c 185e 5dbd d0fa 83bc 8092 ee3b
00000120: 40b7 ecbd d451 0fbd 8432 91bd b03e 013c
00000130: f8c8 2ebd 10f0 1cbd bc4e 20bd aa21 e8bd
00000140: 809e 99bb 208d ce3c c2a1 b0bd 1478 5cbd
00000150: 5484 c4bd c424 5a3d d4c3 a93d 84d5 49bd
00000160: f4c2 b63d 20f2 613c 9cd9 d0bd 888d 7abd
00000170: 887e 9fbd b8c1 b63d d831 d9bc f612 e5bd
00000180: 5843 b83d eef7 b93d 8068 9ebd 0ed5 e3bd
00000190: 0cda d13d c01c 44bd be74 f3bd 82b7 e1bd
000001a0: 1a18 b13d f0ee 17bd 50a5 b8bd 60d5 4d3c
000001b0: 6857 71bd a26b 863d a029 c3bb 887c 2c3d
000001c0: e8e6 aebd 603b 2cbc e878 8bbd 9894 2d3d
000001d0: fcee 4a3d 88a7 cc3c e0b4 b93b 5022 a33d
000001e0: da29 873d 60ba 1bbc ccef fbbd f631 a33d
000001f0: 108b cdbd 9c20 753d 6e9f e83d 1a53 bb3d
00000200: 6605 c9bd e288 e8bd 94a9 25bd e091 283d
00000210: 10a2 97bd d07d c03c 74dc 54bd e26d efbd
00000220: 60b1 163c 3acb fdbd 3cf3 453d 088d 1f3d
00000230: 3042 91bc d22a e83d 4004 f33c f0d2 d83d
00000240: 0293 96bd 0c92 8b3d 0012 333a e8bb 143d
00000250: c0b0 12bb d261 e5bd b02f 053c 00bb 8ebc
00000260: d459 ebbd 38f5 993c 9864 30bd a634 e0bd
00000270: 3875 223d a68c ae3d 4097 423d be57 cb3d
00000280: 7084 f03d 3085 ee3d 5837 073d 84c1 2abd
00000290: 8c05 5dbd f2fc 873d b01d b53d 905a 413c
000002a0: 6a84 d6bd 6839 123d 182a 1b3d e89d f3bc
000002b0: 90bc 043c 7c04 2b3d e625 bf3d 40fd fa3d
000002c0: eacb 893d 6a3a c33d 00e3 05ba 00d9 62bd
000002d0: 5a51 fa3d 80d9 f5ba cc22 edbd d8c6 7b3d
000002e0: 66cc d53d 8083 eabc 8ee0 a43d d88d fcbd
000002f0: 1c8a e13d e402 c63d 6051 92bc 425b b13d
00000300: c4ca 8bbd c223 e7bd fc7c e23d 3457 9b3d
00000310: 347c 4abd 40b8 a33d 6c58 ff3d 48f2 603d
00000320: 784b 733d c4c5 b1bd c665 bc3d 982c c1bc
00000330: 764f c23d d65f c53d 34ab 71bd 8802 263d
00000340: e4b2 5a3d 6a0b b5bd b46f 00bd c434 f9bd
00000350: 0e5a de3d bcfe e53d c8fb bd3c 100d a1bd
00000360: a89d ed3d ac4f 003d 60d7 a23b 0004 fab9
00000370: 2abc b93d 5057 563c 14cc 883d 842d 04bd
00000380: 80a5 c5bc 927a d2bd 5097 d73d c873 b63c
00000390: 8c2a e7bd 0086 4d3b 18fb c9bd 00e0 ccbd
000003a0: 30b3 4dbd 00e7 683a 2ca3 573d f416 973d
000003b0: c08a 38bc 4832 c2bd bc06 01bd 20b0 8cbc
000003c0: 003f acba e0aa b2bd d064 d93c 5005 ce3d
000003d0: 2e70 93bd 20bc b43c 5043 183c 1cfc b5bd
000003e0: 6097 d23b 80e0 b4bd b633 b03d 7c3f 75bd
000003f0: 5200 ed3d dafc fe3d 0cb3 99bd 70b7 b6bc
0.039874032 -0.12180278 -0.060892433 -0.026410878 0.118750304 -0.12254731 -0.058306366 0.0056880414
0.07066071 -0.016000926 -0.07674782 -0.01409322 -0.040308595 0.067288116 -0.05926086 0.046274334
-0.09185436 -0.05714719 -0.037808523 0.0018571615 0.053680986 -0.021054164 -0.10981685 -0.11682649
0.059852526 -0.121469855 -0.12148976 -0.115122646 -0.04444827 -0.04626143 -0.0028585047 0.012883216
-0.018105462 0.01343739 -0.046124026 0.07815896 0.029202238 -0.049083754 -0.06085582 0.0038703978
0.012277082 -0.04767494 -0.066903904 0.0909777 0.09163679 0.048144072 0.03426282 -0.12270683
0.11191794 0.013157517 -0.12291032 -0.10733768 -0.033418104 0.012944624 0.039100617 0.038471773
0.048159003 -0.029596895 0.0054685175 0.07753052 -0.07998702 -0.11082193 -0.106625766 0.12278281
0.025929257 0.0744537 0.06450206 0.10156515 0.028082803 -0.054044813 -0.016110808 0.0072806478
-0.1155839 -0.034990147 -0.07089713 0.007888481 -0.042672127 -0.03831488 -0.039137587 -0.11334546
-0.004688084 0.025213778 -0.08624603 -0.053825453 -0.09595552 0.05325772 0.082893044 -0.04927589
0.08923903 0.013790637 -0.10197756 -0.06117013 -0.07787806 0.08923668 -0.026513025 -0.11185257
0.0899722 0.09080492 -0.077347755 -0.11124621 0.10246667 -0.04787898 -0.11887501 -0.110213295
0.08647175 -0.037093103 -0.09015906 0.01256308 -0.058921248 0.06563498 -0.00595589 0.04211095
-0.085401356 -0.010512203 -0.068101704 0.04237804 0.04954432 0.024982229 0.005667314 0.07965529
0.065997794 -0.0095048845 -0.12301597 0.07968514 -0.1003629 0.05984555 0.11358534 0.0914671
-0.09815483 -0.11354233 -0.040444925 0.041154742 -0.07403958 0.023497492 -0.051968053 -0.1169088
0.009197563 -0.12392278 0.04832767 0.038952857 -0.017731756 0.11336292 0.029665112 0.10587108
-0.07352258 0.068149656 0.00068309903 0.036312014 -0.0022383183 -0.11200298 0.008129045 -0.017423153
-0.11491743 0.018793687 -0.043064684 -0.10947542 0.03966257 0.0852292 0.047507524 0.09928845
0.117440104 0.11646497 0.033011764 -0.041688457 -0.053960368 0.06640042 0.08843553 0.011801377
-0.10474475 0.035699278 0.03788194 -0.029738382 0.008101597 0.041752324 0.093334004 0.12255335
0.06728347 0.09532626 -0.0005107373 -0.05538273 0.12222548 -0.0018756837 -0.115789026 0.06146893
0.104393765 -0.028627157 0.08050643 -0.12331742 0.110126704 0.0966852 -0.017861068 0.08659984
-0.06825784 -0.11286117 0.11058995 0.07584992 -0.049434856 0.07994127 0.12468037 0.054918557
0.059398144 -0.08680299 0.09199099 -0.023580834 0.09487812 0.0963742 -0.059001163 0.040529758
0.05339326 -0.08840068 -0.03135653 -0.12168267 0.1085702 0.11230227 0.023191348 -0.078638196
0.11602336 0.03132598 0.0049695224 -0.00047686696 0.090690926 0.01308234 0.0667955 -0.03226997
-0.024126768 -0.10277285 0.105269074 0.022272006 -0.11287412 0.0031360388 -0.098623455 -0.10003662
-0.050219715 0.00088845193 0.052645847 0.07377425 -0.011263549 -0.09482247 -0.031500563 -0.017173827
-0.0013141334 -0.08723998 0.026537329 0.10059607 -0.07199131 0.022062361 0.009293392 -0.08885977
0.0064267367 -0.088318825 0.08603613 -0.059874997 0.11572327 0.12450571 -0.075048536 -0.022304267

network.4.bias f4 [4]
00000000: 96af fbbd 2012 2ebc a46c 27bd 32ac d03d
-0.1228935 -0.0106244385 -0.040875092 0.10189094
